…
/gpfs/mira-home/mansisak/PtychoNN/data/20191008_39_diff.npz
(161, 161, 64, 64)
(161, 161, 256, 256)
101
(16100, 1, 64, 64)
3.1268637 -1.564053
x_train tensor, y_i train tensor, y_phi train tensor
torch.Size([16100, 1, 64, 64]) torch.Size([16100, 1, 64, 64]) torch.Size([16100, 1, 64, 64])
15295 805
batch size: torch.Size([64, 1, 64, 64])
torch.Size([64, 1, 64, 64]) torch.Size([64, 1, 64, 64])
torch.float32 torch.float32
----------------------------------------------------------------
        Layer (type)               Output Shape         Param #
================================================================
            Conv2d-1           [-1, 32, 64, 64]             320
              ReLU-2           [-1, 32, 64, 64]               0
            Conv2d-3           [-1, 32, 64, 64]           9,248
              ReLU-4           [-1, 32, 64, 64]               0
         MaxPool2d-5           [-1, 32, 32, 32]               0
            Conv2d-6           [-1, 64, 32, 32]          18,496
              ReLU-7           [-1, 64, 32, 32]               0
            Conv2d-8           [-1, 64, 32, 32]          36,928
              ReLU-9           [-1, 64, 32, 32]               0
        MaxPool2d-10           [-1, 64, 16, 16]               0
           Conv2d-11          [-1, 128, 16, 16]          73,856
             ReLU-12          [-1, 128, 16, 16]               0
           Conv2d-13          [-1, 128, 16, 16]         147,584
             ReLU-14          [-1, 128, 16, 16]               0
        MaxPool2d-15            [-1, 128, 8, 8]               0
           Conv2d-16            [-1, 128, 8, 8]         147,584
             ReLU-17            [-1, 128, 8, 8]               0
           Conv2d-18            [-1, 128, 8, 8]         147,584
             ReLU-19            [-1, 128, 8, 8]               0
         Upsample-20          [-1, 128, 16, 16]               0
           Conv2d-21           [-1, 64, 16, 16]          73,792
             ReLU-22           [-1, 64, 16, 16]               0
           Conv2d-23           [-1, 64, 16, 16]          36,928
             ReLU-24           [-1, 64, 16, 16]               0
         Upsample-25           [-1, 64, 32, 32]               0
           Conv2d-26           [-1, 64, 32, 32]          36,928
             ReLU-27           [-1, 64, 32, 32]               0
           Conv2d-28           [-1, 64, 32, 32]          36,928
             ReLU-29           [-1, 64, 32, 32]               0
         Upsample-30           [-1, 64, 64, 64]               0
           Conv2d-31            [-1, 1, 64, 64]             577
          Sigmoid-32            [-1, 1, 64, 64]               0
           Conv2d-33            [-1, 128, 8, 8]         147,584
             ReLU-34            [-1, 128, 8, 8]               0
           Conv2d-35            [-1, 128, 8, 8]         147,584
             ReLU-36            [-1, 128, 8, 8]               0
         Upsample-37          [-1, 128, 16, 16]               0
           Conv2d-38           [-1, 64, 16, 16]          73,792
             ReLU-39           [-1, 64, 16, 16]               0
           Conv2d-40           [-1, 64, 16, 16]          36,928
             ReLU-41           [-1, 64, 16, 16]               0
         Upsample-42           [-1, 64, 32, 32]               0
           Conv2d-43           [-1, 64, 32, 32]          36,928
             ReLU-44           [-1, 64, 32, 32]               0
           Conv2d-45           [-1, 64, 32, 32]          36,928
             ReLU-46           [-1, 64, 32, 32]               0
         Upsample-47           [-1, 64, 64, 64]               0
           Conv2d-48            [-1, 1, 64, 64]             577
             Tanh-49            [-1, 1, 64, 64]               0
================================================================
Total params: 1,247,074
Trainable params: 1,247,074
Non-trainable params: 0
----------------------------------------------------------------
Input size (MB): 0.02
Forward/backward pass size (MB): 18.56
Params size (MB): 4.76
Estimated Total Size (MB): 23.34
----------------------------------------------------------------
LR step size is: 1434.0 which is every 6 epochs
…
